simple_nn_model.pth (torch, 440693 bytes, 6 tensors)

fc.0.weight f4 [128, 784]
0	0x3cdf8966	0.027287196
1	0x3cea8ed4	0.028632559
2	0xbc7f1d52	-0.015570955
3	0x3cd7e550	0.026354462
4	0x3d9218c1	0.07133628
5	0x3e035fa3	0.12829451
6	0x3d5dd34a	0.05415658
7	0x3da8cb16	0.082418606
8	0xbe111760	-0.14169073
9	0xbe8f85ff	-0.28031918
10	0xbe5230dd	-0.20526452
11	0xbeb7abd1	-0.35873273
12	0x3d7b1e04	0.061307922
13	0xbba536f3	-0.005041951
14	0x3cead8f9	0.028667914
15	0x3d4acd03	0.04951192
16	0x3e84c6eb	0.25933012
17	0xbd9dab5e	-0.07698701
18	0xbea9e683	-0.3318368
19	0xbee28edb	-0.44249615
20	0xbe6af4f0	-0.22944999
21	0xbd339a4a	-0.043848313
22	0x3dcb0132	0.09912337
23	0x3da3f647	0.08005958
24	0xbc709319	-0.014683508
25	0xbca3a5d4	-0.019976534
26	0xbc1e46f2	-0.009660469
27	0xbcb24b98	-0.021764562
28	0x3b8c9f23	0.0042914315
29	0xbd197105	-0.0374613
30	0x3d1402f6	0.036135636
31	0x3ccf849a	0.025331784
32	0x3e8f5393	0.2799345
33	0x3da43d34	0.08019486
34	0x3e3bb35c	0.18330139
35	0x3d92bcd3	0.071649216
36	0xbd827803	-0.06370547
37	0xbedad613	-0.4274145
38	0xbf12e646	-0.5738262
39	0xbecc6559	-0.39921072
40	0x3c62cd27	0.013842857
41	0x3e380796	0.17971644
42	0x3e88331c	0.26601493
43	0x3ef18293	0.47169933
44	0x3c86146a	0.016367156
45	0xbe888c06	-0.2666933
46	0xbea958cb	-0.33075556
47	0xbe87f500	-0.26554108
48	0xbe6fcbeb	-0.23417632
49	0xbe5a3389	-0.21308722
50	0x3ddd63da	0.10810061
51	0x3e133fbd	0.14379783
52	0x3c42946f	0.01187621
53	0x3cc0db9b	0.023542216
54	0xba08e6ce	-0.0005222381
55	0x3c812479	0.015764462
56	0x3c17a0b8	0.009254627
57	0xbcc9c790	-0.024631292
58	0xbd0e5964	-0.03475322
59	0x3ce3c4b0	0.027803749
60	0x3ea6d0d3	0.32581195
61	0x3e815dcc	0.25266874
62	0xbc595e69	-0.013267138
63	0x3e5666bc	0.20937628
64	0x3e4ad940	0.19809437
65	0x3c202a46	0.009775704
66	0x3d905603	0.070476554
67	0xbe3ce89a	-0.18448105
68	0xbe5e844b	-0.21730153
69	0x3dba5494	0.09098163
70	0x3df6f727	0.12058859
71	0xbe68fc27	-0.22752438
72	0xbf284deb	-0.65743893
73	0xbc29aa4c	-0.010355543
74	0x3e39a25e	0.18128344
75	0x3d9b0008	0.07568365
76	0x3e060012	0.13085964
77	0x3e5fd77a	0.21859542
78	0x3d00d541	0.031453375
79	0x3e3003bd	0.17188926
80	0x3da31beb	0.07964309
81	0xbd7123b0	-0.058871925
82	0xbc88fac6	-0.01672114
83	0xbbf46175	-0.007457907
84	0x3c83e74a	0.016101498
85	0xbd3e8eee	-0.046523027
86	0xbd4f1c80	-0.05056429
87	0x3e49823a	0.19678584
88	0x3e4e045e	0.20118853
89	0xbe88260f	-0.26591536
90	0x3e15df58	0.1463598
91	0x3df363ce	0.118842706
92	0x3ea1ed26	0.31626242
93	0xbdb165ba	-0.08661981
94	0xbe302a04	-0.17203528
95	0xbe4818bd	-0.19540687
96	0xbdb524e5	-0.08844928
97	0xbca6dcde	-0.02036899
98	0xbd8e7d94	-0.06957546
99	0xbe4c53ee	-0.19953892
100	0xbc6954b4	-0.014241386
101	0xbd1a7865	-0.037712473
102	0xbde5ce92	-0.11221041
103	0x3de51782	0.111861244
104	0x3e3d4e33	0.18486862
105	0x3ec0d850	0.37665033
106	0x3e110d73	0.14165287
107	0x3ccdfdb3	0.025145387
108	0x3d8164a1	0.063180216
109	0xbd3d3763	-0.0461954
110	0xbd2a749b	-0.04161511
111	0x3c3db3c6	0.011578506
112	0xba0ee05b	-0.00054503017
113	0xbdc03aa8	-0.09386188
114	0xbe5b6e02	-0.21428683
115	0x3e6d118f	0.2315123
116	0x3dc868bf	0.09785604
117	0xbe21e4cb	-0.15809934
118	0x3e92048d	0.28519097
119	0xbde7869f	-0.11304974
120	0xbd82b616	-0.063823864
121	0xbdfb01ed	-0.12256227
122	0xbd5c9dc5	-0.0538614
123	0x3d4859de	0.04891383
124	0x3d75764e	0.059927277
125	0xbe174a9c	-0.14774555
126	0xbc1e4549	-0.009660074
127	0xbe2351f4	-0.15949231
128	0xbdb565d7	-0.08857315
129	0xbb18024a	-0.0023194724
130	0xbe1e3f10	-0.15453744
131	0xbe3503eb	-0.17677276
132	0xbe4698ab	-0.19394176
133	0x3ed65c9e	0.41867536
134	0x3ddf6a43	0.1090894
135	0x3da47d5d	0.08031724
136	0xbd03207d	-0.032013405
137	0xbd81f0ed	-0.06344781
138	0xbe073936	-0.13205418
139	0xbd09f2a6	-0.033678673
140	0xbcd3d873	-0.025860047
141	0xbe35938c	-0.17732066
142	0x3d10e8a1	0.035378102
143	0x3d9133e6	0.07089977
144	0xbd073d5e	-0.03301751
145	0xbce62421	-0.0280934
146	0x3e9bb9cb	0.30415186
147	0x3d05c9af	0.032663044
148	0xbcf0c3a3	-0.029390162
149	0xbe4eaa46	-0.20182142
150	0xbdfb479b	-0.12269517
151	0xbd450bcc	-0.048106954
152	0xbd743f9f	-0.059630986
153	0xbdb7a21b	-0.08966466
154	0x3ddd0498	0.10791892
155	0xbe5756b0	-0.21029162
156	0xbdd2cddb	-0.1029317
157	0xbdaea73a	-0.0852799
158	0x3d43ea31	0.047830764
159	0xbe0e8120	-0.13916445
160	0xbb7050a4	-0.003666916
161	0x3e65b24a	0.22431293
162	0x3e942593	0.28934917
163	0x3e757958	0.2397207
164	0xbd8649d2	-0.06557049
165	0xbd646970	-0.055764616
166	0xbe258c99	-0.16166915
167	0x3a6faf85	0.0009143281
168	0xbc8cfe68	-0.017211154
169	0xbdc52f70	-0.096281886
170	0x3dd60a86	0.10451226
171	0xbe089bed	-0.13340731
172	0xbe7cbe36	-0.24681935
173	0xbe2c219a	-0.16809693
174	0x3e025cf3	0.1273077
175	0x3e50fa11	0.20407893
176	0xbd64e6c7	-0.05588415
177	0xbe06a99c	-0.13150638
178	0x3e057f86	0.13036928
179	0x3e64b216	0.2233356
180	0x3d1748f0	0.036934793
181	0x3e65b50f	0.2243235
182	0x3e6c2431	0.23060681
183	0x3b5b3298	0.0033446904
184	0xbca63f03	-0.020293718
185	0x3e1ba167	0.15198289
186	0x3e1eab7d	0.15495105
187	0x3e061bf9	0.13096608
188	0xbe159a64	-0.14609677
189	0x3e1ad905	0.15121849
190	0x3e669efe	0.22521588
191	0x3d1fa343	0.038974058
192	0xbda4f672	-0.08054818
193	0xbe150b57	-0.14555107
194	0xbe1db45b	-0.15400831
195	0xbd60599a	-0.05477295
196	0xbd03c5c2	-0.03217102
197	0xbd979713	-0.07401862
198	0x3dc1ac93	0.09456744
199	0xbe4e957d	-0.20174213
200	0xbece5f5a	-0.40307122
201	0xbc4b678a	-0.012414822
202	0x3e16b64b	0.14717977
203	0x3e880ee5	0.26573864
204	0xbd5ecac9	-0.05439261
205	0xbeb8b212	-0.36073357
206	0xbd46844f	-0.048466023
207	0xbe14a11c	-0.14514583
208	0xbe969eec	-0.29418123
209	0xbd83b859	-0.06431646
210	0x3d8eefd1	0.06979335
211	0xbe3639e6	-0.17795524
212	0xbe7c8b0d	-0.24662419
213	0xbde0b766	-0.109724805
214	0x3db45e2e	0.08807026
215	0x3e9680c6	0.2939512
216	0xbddbd7f8	-0.10734552
217	0x3e9c8559	0.30570486
218	0x3e432070	0.19055343
219	0xbe33f39a	-0.17573395
220	0xbe477322	-0.19477513
221	0xbe113bfa	-0.14183035
222	0xbd56a8c5	-0.052407045
223	0xbd8a9dba	-0.06768365
224	0xbdc163ab	-0.09442838
225	0xbdccda78	-0.10002607
226	0x3d9457f4	0.07243338
227	0x3d896032	0.06707801
228	0xbe85b886	-0.26117343
229	0x3e844095	0.25830522
230	0x3e43177c	0.19051927
231	0x3e5c0c9c	0.21489185
232	0x3e0a8738	0.13528144
233	0xbd277a48	-0.0408881
234	0x3c18eaa4	0.009333286
235	0xbc7ba67a	-0.015359515
236	0xbe485093	-0.19561987
237	0xbdb5206f	-0.08844077
238	0xbd2c1a0c	-0.042017028
239	0xbd8b43dc	-0.068000525
240	0xbe8fc4f6	-0.28079957
241	0xbe7316bd	-0.23739143
242	0xbe07861b	-0.13234751
243	0x3e7741aa	0.24146143
244	0x3e2df263	0.16986994
245	0x3df5043d	0.11963699
246	0x3d86ce8a	0.06582363
247	0x3cf0d175	0.029396752
248	0xbdff98d6	-0.12480323
249	0xbe9a7877	-0.30170032
250	0xbe257de5	-0.16161306
251	0xbd8ad311	-0.06778539
252	0xbdd18b26	-0.102316186
253	0xbdcb4ea1	-0.09927107
254	0x3dcd9c57	0.10039585
255	0x3e07b755	0.1325353

fc.0.bias f4 [128]
0	0x3e861e3e	0.26194948
1	0xbeca2920	-0.394845
2	0x3e361e83	0.17785077
3	0x3e8252d5	0.2545382
4	0xbddcb42a	-0.10776551
5	0x3f65358e	0.8953484
6	0x3f513d67	0.8173432
7	0xbf565c5a	-0.8373467
8	0x3e8f78b9	0.28021792
9	0x3f4cc6bf	0.7999076
10	0x3f1a98bb	0.603893
11	0xbf6db67b	-0.9285657
12	0x3e4865dc	0.19570106
13	0xbcf2dabd	-0.029645318
14	0x3e9e13e7	0.3087456
15	0xbc242739	-0.010019117
16	0x3ed8695f	0.42267892
17	0xbf3efde5	-0.7460616
18	0x3e6d6d1e	0.23186156
19	0x3f1dad2d	0.6159237
20	0x3f630eec	0.88694644
21	0x3f070505	0.52742034
22	0xbdd057c1	-0.10172988
23	0xbe9924cb	-0.29910883
24	0xbdc7db91	-0.09758676
25	0x3efd86e8	0.49516988
26	0x3e07ea20	0.13272905
27	0x3eb30e94	0.3497206
28	0x3e395cc6	0.18101797
29	0xbea6e36c	-0.32595384
30	0xbfccdf49	-1.6005641
31	0x3f3028fd	0.68812543
32	0xbf858042	-1.0429766
33	0xbd293929	-0.041314278
34	0xbebda148	-0.3703711
35	0xbd5f5263	-0.05452193
36	0x3e2a6f2e	0.16643974
37	0x3ef59163	0.47962484
38	0x3eb00e89	0.3438609
39	0xbfe1535a	-1.7603562
40	0x3e3e92e7	0.18610726
41	0x3e5ff7a1	0.21871807
42	0xbf8bd105	-1.0923163
43	0xbf02335f	-0.50859636
44	0xbf6ba0ad	-0.92042047
45	0x3f65f971	0.8983374
46	0x3f048392	0.5176326
47	0xbea9f958	-0.33198047
48	0x3f83487f	1.0256499
49	0x3f4f113a	0.8088566
50	0xbf5f8085	-0.8730548
51	0x3ef0e4e6	0.47049636
52	0xbdec3333	-0.11533203
53	0xbda7f9d4	-0.08201948
54	0x3ec4a7f8	0.384094
55	0x3e12c6d1	0.14333655
56	0xbecae24f	-0.39625785
57	0x3f9350f3	1.1509079
58	0x3e9a7317	0.30165932
59	0x3d0964b1	0.033543292
60	0x3eac8469	0.3369477
61	0x3ee7f923	0.45307264
62	0x3e100f9c	0.14068455
63	0x3f8ebb4e	1.1150911
64	0xbf21c771	-0.6319495
65	0x3ef9c0a1	0.48779777
66	0x3e0416fa	0.1289939
67	0x3e80eb81	0.25179675
68	0x3ba41909	0.0050078672
69	0x3f4d36cf	0.80161756
70	0x3d038d6f	0.032117303
71	0x3bc6afa3	0.006063418
72	0x3f4567c1	0.7711144
73	0x3ce39369	0.027780252
74	0xbe2d2865	-0.1690994
75	0xbcb21e50	-0.02174297
76	0x3ebed9e3	0.3727561
77	0xbf0e5f34	-0.5561402
78	0x3eb9dc7b	0.36301026
79	0x3e81d72b	0.25359473
80	0x3f3050c3	0.6887323
81	0xbe3b2bdf	-0.18278454
82	0x3db11e24	0.08648327
83	0x3ee62266	0.4494812
84	0x3e1e7a50	0.15476346
85	0x3ef319d9	0.47480658
86	0x3d462737	0.048377242
87	0xbd7267ff	-0.05918121
88	0x3ea5f57e	0.32413858
89	0x3e80b17d	0.25135413
90	0x3f42cce3	0.7609388
91	0x3e6e1f0a	0.23254028
92	0x3f95182d	1.1648003
93	0xbf897da4	-1.0741467
94	0x3f0fc69f	0.56162447
95	0x3ea02af1	0.31282762
96	0xbf3fb5a8	-0.7488656
97	0xbedf25be	-0.43583483
98	0xbf3d79b7	-0.7401385
99	0xbe481947	-0.19540893
100	0x3d276e13	0.04087646
101	0x3f3e312d	0.74293786
102	0xbf10a471	-0.5650092
103	0x3ed5e162	0.41773516
104	0xbee25c58	-0.44211078
105	0x3f1923d7	0.5982031
106	0xbdf3389e	-0.11876033
107	0x3f3ea629	0.7447229
108	0x3ec40bab	0.38290152
109	0x3febcec8	1.842248
110	0xbd9f11ec	-0.0776709
111	0x3f675751	0.9036761
112	0x3f3e3b3f	0.7430915
113	0xbf27e710	-0.6558695
114	0x3e80fcac	0.25192773
115	0x3f4abb93	0.79192466
116	0x3f29c493	0.66315573
117	0xbdaceef5	-0.08444015
118	0x3f397ef2	0.7245933
119	0xbd1383f6	-0.03601452
120	0x3ea3e070	0.3200717
121	0xbe849143	-0.25892076
122	0xbeaac5f0	-0.3335414
123	0x3fc47b0f	1.5350055
124	0xbe010d30	-0.12602687
125	0xbf4fd683	-0.81186694
126	0x3eebbdd7	0.46043274
127	0x3f41eb58	0.7574973

fc.2.weight f4 [64, 128]
0	0xbde01a0a	-0.109424666
1	0x3d7f15c4	0.062276617
2	0x3d69a773	0.057044458
3	0x3df099c5	0.11748079
4	0x3d104d6b	0.03523008
5	0xbe3c6e6e	-0.184015
6	0xbe1d3cbc	-0.153552
7	0xbd9e85bc	-0.077403516
8	0x3e832a3e	0.25618166
9	0x3d1635a7	0.03667226
10	0xbdf52b07	-0.119710974
11	0xbf356ace	-0.70866096
12	0x3e8d7f9e	0.27636427
13	0xbce6eed1	-0.028190048
14	0xbe1cc402	-0.15309146
15	0x3d93f089	0.07223613
16	0xbe4e7a30	-0.20163798
17	0xbf532ce9	-0.824904
18	0xbde90550	-0.113779664
19	0xbd19e1cc	-0.037568852
20	0xbe43abe7	-0.19108544
21	0xbe3b7ae5	-0.183086
22	0xbec8cfc4	-0.39221013
23	0x3e673b9d	0.22581334
24	0xbe00d419	-0.12580909
25	0x3dfd189d	0.1235821
26	0x3f118174	0.56838155
27	0xbef1856d	-0.47172108
28	0xbe9193e0	-0.28433132
29	0xbcc28c8a	-0.023748655
30	0xbf307819	-0.68933254
31	0x3e1bfa5e	0.15232226
32	0xbe68b25f	-0.22724293
33	0xbc5404a0	-0.012940556
34	0xbc5f20c5	-0.013618653
35	0xbe83bbd6	-0.25729245
36	0x3f0153a8	0.50518274
37	0x3cd76af6	0.02629612
38	0xbe8ed969	-0.27900246
39	0x3e3f5005	0.18682869
40	0x3e26f7fc	0.16305536
41	0x3e3e090a	0.18558136
42	0xbec12a1c	-0.3772744
43	0x3d941f6a	0.07232554
44	0xbbf80eeb	-0.0075701377
45	0xbe50052a	-0.2031447
46	0xbe15d137	-0.1463059
47	0xbba46103	-0.0050164475
48	0xbe359c3a	-0.17735377
49	0x3e6b0942	0.2295275
50	0xbec721d3	-0.38892993
51	0xbe0b9734	-0.13631898
52	0xbe224d44	-0.15849787
53	0xbddbb19c	-0.10727236
54	0x3d31ed7c	0.043439373
55	0xbd1b0961	-0.03785074
56	0xbf1e0f51	-0.6174212
57	0x3e8a304a	0.26989967
58	0xbd701d83	-0.058621895
59	0x3e045daf	0.12926362
60	0x3ce23a49	0.027615683
61	0xbeab667f	-0.33476636
62	0xbd3a152b	-0.045430344
63	0xbea819d7	-0.32832214
64	0xbe0eb40e	-0.13935873
65	0x3d6bb2cb	0.057543557
66	0x3e38ac84	0.1803456
67	0xbd2258ae	-0.039635353
68	0xbec9837a	-0.3935812
69	0x3e2fbbdd	0.17161508
70	0xbf1c1fe8	-0.60986185
71	0x3d887ad1	0.0666405
72	0x3e8f24c8	0.2795775
73	0xbc729b41	-0.014807523
74	0x3e7ecd02	0.24882892
75	0x3d855a25	0.06511334
76	0x3e77dd71	0.24205567
77	0x3ef85115	0.4849936
78	0x3edd3353	0.4320322
79	0x3c34b4f2	0.011029469
80	0xbf0b24bc	-0.5435293
81	0x3e43df30	0.19128108
82	0x3dc79157	0.09744518
83	0x3e6bda67	0.23032533
84	0x3e1c73ba	0.15278521
85	0x3e3c50f2	0.18390253
86	0xbe41874c	-0.18899268
87	0x3e67a3cc	0.22621077
88	0x3e6d07f8	0.23147571
89	0x3ec2f3e1	0.3807669
90	0x3e993617	0.2992408
91	0xbbcf182b	-0.0063200197
92	0xbe3589ce	-0.1772835
93	0xbe2b367d	-0.16720004
94	0x3e698d97	0.22807918
95	0x3d4acc4d	0.049511243
96	0xbdd83111	-0.10556234
97	0x3ce747b2	0.02823243
98	0xbe7ca8c1	-0.2467375
99	0x3cc2af38	0.023765191
100	0x3c54fa95	0.012999197
101	0x3deff139	0.117159314
102	0xbea87fd2	-0.3291002
103	0xbe87edc0	-0.26548576
104	0xbd834cfb	-0.06411167
105	0xbe823c59	-0.25436667
106	0xbf08ee9f	-0.53489107
107	0x3e7cd75e	0.24691531
108	0x3e226ba6	0.15861377
109	0x3eb5c18e	0.35499233
110	0xbe3d1359	-0.18464412
111	0xbe2b7f43	-0.16747765
112	0x3c40e2ea	0.0117728505
113	0xbdf1d19a	-0.118075565
114	0x3e112514	0.141743
115	0x3f40313e	0.7507514
116	0x3dced35d	0.10098908
117	0x3eb3fae4	0.35152352
118	0xbe26e8a9	-0.1629969
119	0xbd28f97c	-0.04125355
120	0xbd6d3509	-0.057911906
121	0xbe9b5b86	-0.30343264
122	0xbef67811	-0.48138478
123	0x3e00cc75	0.12577994
124	0xbdba55b6	-0.09098379
125	0xbd266488	-0.040623218
126	0xbe054fdc	-0.13018745
127	0xbdc044c0	-0.09388113
128	0x3f0a01e1	0.53909117
129	0x396510ab	0.00021845351
130	0xbeaab09e	-0.33337873
131	0x3d89261b	0.06696721
132	0xbd910d71	-0.07082642
133	0x3e12602f	0.14294504
134	0x3df990a7	0.12185793
135	0xbe9a94a4	-0.3019153
136	0xbddbb024	-0.107269555
137	0x3e8d0101	0.27539828
138	0x3e031fa2	0.12805036
139	0xbec1e196	-0.3786742
140	0x3ea8ffbb	0.33007607
141	0x3a1368bf	0.00056232134
142	0x3e8aeea2	0.27135187
143	0x3d5814e7	0.05275431
144	0x3cd7d229	0.02634533
145	0xbe7ae283	-0.2450047
146	0x3ef0d5d6	0.47038144
147	0x3e27c1c2	0.16382506
148	0xbee83d58	-0.45359302
149	0xbe42fc91	-0.19041659
150	0xbe290bf3	-0.16508465
151	0xbcbe0f51	-0.023200663
152	0x3cc47a97	0.023984237
153	0x3d1f266e	0.03885501
154	0xbe61e768	-0.2206093
155	0x3f261423	0.64874476
156	0xbdfc7cf1	-0.12328518
157	0x3d078bf5	0.033092458
158	0x3d82d6af	0.06388604
159	0x3e9ad7c8	0.30242753
160	0x3cb3bbc3	0.021940118
161	0xbc8b1c59	-0.01698129
162	0xbd9f56b3	-0.077802084
163	0xbeaa783e	-0.33294863
164	0x3ebf0153	0.37305698
165	0x3e81d793	0.25359783
166	0xbd80c56d	-0.06287656
167	0xbc2e6604	-0.01064444
168	0xbbcbbc06	-0.0062174825
169	0x3d249973	0.040185403
170	0x3dd1a643	0.1023679
171	0x3e18550c	0.14876193
172	0xbe301e95	-0.17199166
173	0xbed48065	-0.41504207
174	0xbd50e499	-0.050999258
175	0x3dd186f4	0.102308184
176	0xbd829ec3	-0.06377938
177	0xbe79a088	-0.24377644
178	0xbda49db8	-0.08037895
179	0xbda3a4ff	-0.07990455
180	0xbe5b277c	-0.21401781
181	0x3d85640c	0.06513223
182	0xbd9c84fb	-0.076425515
183	0x3cf136d8	0.029445097
184	0xbc95ed3e	-0.018301602
185	0xbf0e2ae5	-0.555342
186	0x3e3089ed	0.17240115
187	0xbe5d82db	-0.21631949
188	0xbc961666	-0.018321227
189	0xbec7be4c	-0.39012372
190	0x3d9c22ff	0.076238625
191	0xbd0176e0	-0.03160751
192	0xbebfe0b7	-0.3747613
193	0xbe27ae51	-0.1637509
194	0xbd95ebd3	-0.073203705
195	0x3dcea5fe	0.10090254
196	0xbc88095f	-0.016606031
197	0xbd92f999	-0.07176513
198	0x3e81a242	0.25319105
199	0xbca225cb	-0.019793412
200	0x3e3d8ce2	0.18510774
201	0x3d6c986d	0.057762552
202	0xbe83be97	-0.25731346
203	0x3f01f82a	0.50769293
204	0xbe9f6b0f	-0.31136367
205	0xbd8ce58c	-0.0687972
206	0x3e4463e1	0.19178726
207	0xbdedf323	-0.1161864
208	0x3f3c9818	0.73669577
209	0xbee80b96	-0.4532134
210	0x3ec4284b	0.3831199
211	0xbdf2893e	-0.11842583
212	0x3e04bebc	0.12963384
213	0x3d259c45	0.040432233
214	0x3db4928a	0.088170126
215	0x3e47f481	0.19526865
216	0x3e212a86	0.15738878
217	0xbee23086	-0.44177645
218	0xbe33a207	-0.17542277
219	0x3e70dc61	0.23521568
220	0x3d58ee3d	0.052961577
221	0x3dd35a8a	0.10320003
222	0xbf12e7f4	-0.5738518
223	0x3ebaf4e7	0.3651497
224	0x3c5a9c47	0.0133429235
225	0xbd222c85	-0.03959324
226	0x3e1df3e9	0.15425076
227	0xbf0123b3	-0.504451
228	0xbf3771ab	-0.7165782
229	0xbd906127	-0.0704978
230	0xbea2dcad	-0.31808987
231	0xbc9ef568	-0.019404128
232	0xbe019656	-0.12655005
233	0xbf115d14	-0.5678265
234	0xbe854581	-0.2602959
235	0xbea7a0df	-0.32739922
236	0x3e26b46f	0.16279767
237	0x3ebadb97	0.3649566
238	0xbbe95198	-0.0071203224
239	0x3d1346f7	0.03595635
240	0xbf2380d1	-0.63868433
241	0x3ddc1fd7	0.107482605
242	0x3e0f070a	0.13967529
243	0x3d860136	0.065432
244	0x3e56d654	0.20980197
245	0x3ebc07cf	0.36724707
246	0x3ea3e6aa	0.3201192
247	0x3ccaa322	0.02473599
248	0x3d9df827	0.07713347
249	0x3e0f90cd	0.14020081
250	0xbdb9c067	-0.09069901
251	0x3ef5a51a	0.47977525
252	0xbedb3f48	-0.42821717
253	0xbed34972	-0.41266972
254	0xbd2dfa55	-0.042475063
255	0x3e8ed2e3	0.2789527

fc.2.bias f4 [64]
0	0x3effcb2b	0.49959692
1	0x3ef61645	0.48063865
2	0xbecd50b6	-0.4010064
3	0x3ee2c2f5	0.44289365
4	0xbe509cc8	-0.20372307
5	0x3e654edf	0.22393368
6	0xbd6bdc18	-0.057582945
7	0x3f2c17fb	0.6722409
8	0x3f52e58a	0.823815
9	0x3e2fb270	0.17157912
10	0x3ed80434	0.42190707
11	0x3efb16d6	0.4904086
12	0xbdb2c578	-0.087290704
13	0x3f557276	0.8337778
14	0x3def7129	0.116915055
15	0x3d32c27a	0.0436425
16	0xbe3c4637	-0.1838616
17	0x3e476f98	0.19476163
18	0x3e224604	0.15847021
19	0xbe32b7ad	-0.17452879
20	0x3e52b9ff	0.20578764
21	0x3f1b2cf3	0.6061546
22	0xbb737478	-0.0037148278
23	0x3f1ad579	0.60481983
24	0x3f52c429	0.82330567
25	0x3e9f9cbc	0.31174266
26	0x3c8bb6e5	0.017054984
27	0x3f3d9af1	0.74064547
28	0x3eb19e3b	0.34691033
29	0x3f2deb51	0.6793719
30	0xbc99c6dc	-0.018771581
31	0x3ef40415	0.47659364
32	0x3f01a85f	0.5064754
33	0x3d52def8	0.05148217
34	0x3edab48b	0.42715868
35	0x3ea56620	0.32304478
36	0x3e51749c	0.20454639
37	0x3eb41bcd	0.3517746
38	0x3e95c0e5	0.2924873
39	0x3db10feb	0.08645614
40	0x3f7d1d11	0.98872477
41	0x3ecc3eb1	0.3989158
42	0x3f74a446	0.9556316
43	0x3d54a3ae	0.05191391
44	0x3e359fff	0.17736815
45	0xbdd630fd	-0.104585625
46	0x3e782e2e	0.24236366
47	0x3f6d284a	0.926396
48	0xbe23ce7f	-0.15996741
49	0x3f2ada06	0.6673893
50	0xbc633f2b	-0.013870041
51	0xbea832d9	-0.32851294
52	0xbef98fde	-0.48742574
53	0x3e9030c0	0.28162193
54	0x3e692bbd	0.22770591
55	0xbe4ec811	-0.20193507
56	0x3e836610	0.25663805
57	0x3f4d5353	0.8020527
58	0x3e878a32	0.26472622
59	0x3f23dd6e	0.6400975
60	0x3e2f95c7	0.1714698
61	0xbe8672bd	-0.26259413
62	0x3f2fe522	0.68709004
63	0x3ea81752	0.32830292

fc.4.weight f4 [10, 64]
0	0x3efdb5e5	0.49552837
1	0x3f7231fd	0.94607526
2	0x3ebce7dc	0.36895645
3	0x3e942b0a	0.28939086
4	0x3e1154b2	0.14192465
5	0x3ef02ee8	0.46910787
6	0xbded92b4	-0.11600247
7	0xbf8575e0	-1.0426598
8	0x3f1f3386	0.62187994
9	0x3ec5452f	0.38529345
10	0x3f89c333	1.0762695
11	0x3f685797	0.9075865
12	0x3d899ccd	0.067193605
13	0x3de95ca2	0.113946214
14	0x3e65ea69	0.22452702
15	0xbee53e3c	-0.44774044
16	0x3e84ef7c	0.25963962
17	0x3f986d4c	1.1908355
18	0xbef7f7bd	-0.48431197
19	0x3e8ab002	0.27087408
20	0x3e9ea783	0.30987176
21	0xbf2a269f	-0.6646518
22	0x3f5005e9	0.8125902
23	0xbf5f6355	-0.87260944
24	0x3ef6aa92	0.4817701
25	0xbe929a82	-0.28633505
26	0x3f2a10f1	0.664321
27	0xbf015ad7	-0.50529236
28	0x3f15cdb2	0.5851699
29	0x3dfcd48c	0.123452276
30	0xbf143d75	-0.57906276
31	0x3eb5d5cf	0.35514686
32	0xbed71e42	-0.42015272
33	0xbf09fa31	-0.53897387
34	0xbede20da	-0.4338444
35	0x3cbfb18f	0.023400096
36	0xbea432d4	-0.3207003
37	0x3ed2f3bd	0.41201583
38	0xbdb6a51d	-0.089182116
39	0x3f25ad5f	0.6471767
40	0xbf0c15e6	-0.54720914
41	0xba83a58d	-0.0010043845
42	0x3eb3b2e3	0.35097417
43	0xbe0ffe12	-0.14061764
44	0xbedd6c47	-0.43246672
45	0x3f7f648a	0.99762785
46	0xbd8429a7	-0.06453257
47	0x3f004725	0.5010856
48	0x3f483203	0.7820131
49	0xbefa4d37	-0.48887035
50	0xbe8fd777	-0.28094074
51	0x3ed27511	0.4110494
52	0xbec7feb6	-0.39061517
53	0x3f849487	1.0357827
54	0xbd83f8f6	-0.0644397
55	0x3f01e0a0	0.50733376
56	0x3dda2ad0	0.10652697
57	0x3f129b77	0.5726847
58	0xbf7830a4	-0.9694922
59	0xbf144e0c	-0.5793159
60	0xbe8e4190	-0.27784395
61	0xbe0c4eca	-0.1370193
62	0xbf55ee3b	-0.83566636
63	0xbe8a01b4	-0.26954424
64	0xbebd9d69	-0.37034157
65	0xbf7edaa1	-0.9955235
66	0x3bc634c7	0.006048772
67	0xbe83a482	-0.25711447
68	0xbdf5a9b5	-0.1199526
69	0xbe511336	-0.20417485
70	0x3f5344ac	0.8252666
71	0xbf143ae7	-0.5790238
72	0xbf42aaaf	-0.7604169
73	0x3cfb8b97	0.03070621
74	0xbeb5bab8	-0.35494018
75	0xbe6bfce7	-0.23045693
76	0x3dc56f34	0.09640351
77	0x3ed0660b	0.40702853
78	0x3e688a94	0.22709113
79	0x3ee39924	0.44452775
80	0xbe9c6fb9	-0.30553988
81	0xbebff62b	-0.374925
82	0x3f5e3ba7	0.8680977
83	0xbe113067	-0.1417862
84	0x3ddc08a1	0.10743833
85	0x3ecb9396	0.39761037
86	0x3f3213c2	0.695614
87	0x3d4fe363	0.050753962
88	0xbf4bbf7c	-0.79589057
89	0xbddabc04	-0.106803924
90	0xbe007ff8	-0.12548816
91	0xbf19387b	-0.5985181
92	0xbe954e2e	-0.2916121
93	0xbed8b4fc	-0.4232558
94	0x3d6c56b7	0.057699885
95	0xbdbc90dc	-0.09207317
96	0xbc711780	-0.0147150755
97	0x3fcac904	1.5842595
98	0xbef71245	-0.48256126
99	0xbe210433	-0.15724258
100	0xbd9c5d83	-0.076350234
101	0x3f1dbe69	0.6161867
102	0x3f760c79	0.9611278
103	0x3e2518e1	0.16122772
104	0xbedce338	-0.43142104
105	0xbe9b8337	-0.30373546
106	0x3f1879e8	0.59561014
107	0xbe616dbc	-0.22014517
108	0x3f69f4fe	0.91389453
109	0xbec6a448	-0.38797212
110	0xbe750ae8	-0.23929942
111	0x3ef4441d	0.47708216
112	0x3ea3ed9c	0.3201722
113	0xbe8f1f6f	-0.2795367
114	0xbe29171d	-0.16512723
115	0x3e63545e	0.22200152
116	0x3e41e27c	0.18934053
117	0xbeaf832c	-0.34279764
118	0xbdf877cd	-0.12132225
119	0xbe0f2484	-0.13978773
120	0x3c1f2a2e	0.009714646
121	0xbe47e3dc	-0.19520515
122	0xbebca8ee	-0.36847633
123	0xbf33c0f5	-0.70216304
124	0x3ec96db4	0.3934151
125	0xbe23c711	-0.15993907
126	0x3f1ded92	0.6169063
127	0xbf238d97	-0.63887924
128	0xbf1b01fe	-0.60549915
129	0x3f8c7655	1.0973612
130	0x3e11ec74	0.14250356
131	0x3d1ed864	0.038780585
132	0xbe2e81ad	-0.17041655
133	0xbf83f74c	-1.0309844
134	0xbeb4092a	-0.35163242
135	0x3f81e629	1.0148364
136	0x3f2a0dc9	0.66427284
137	0x3ec4a390	0.38406038
138	0xbddd8651	-0.108166344
139	0x3f45bed7	0.77244323
140	0x3eb1d0af	0.34729525
141	0xbf7db165	-0.9909881
142	0xbe4edada	-0.20200673
143	0xbf226f0d	-0.634507
144	0xbc454e34	-0.012042571
145	0xbeecff79	-0.4628866
146	0xbf2dff2d	-0.6796749
147	0xbe98030e	-0.2968983
148	0x3ea3bfad	0.31982175
149	0x3f3c2531	0.7349425
150	0x3e00834d	0.12550087
151	0x3ef6cd2f	0.48203418
152	0x3f21e2de	0.63236797
153	0x3f06ead8	0.52702093
154	0xbbd799a7	-0.006579596
155	0x3d7fbc5e	0.0624355
156	0xbe17cc8c	-0.14824122
157	0x3c8b4150	0.016998917
158	0xbf53b2d1	-0.8269473
159	0x3ca1a62f	0.019732563
160	0xbe194204	-0.14966589
161	0xbf1d3e50	-0.61423206
162	0x3ee23eea	0.44188625
163	0x3dfed22e	0.12442432
164	0xbf644596	-0.8916868
165	0x3ef086e2	0.46977907
166	0x3e856f69	0.26061562
167	0xbec6fbe0	-0.3886404
168	0xbba5f4ff	-0.005064606
169	0x3e850dc5	0.25987068
170	0x3edfd7f7	0.43719456
171	0x3ebeff1c	0.37304008
172	0xbc5ee903	-0.013605359
173	0xbf3f5c80	-0.7475052
174	0x3ec7c578	0.39017844
175	0x3f6e566c	0.9310062
176	0xbe869958	-0.26288867
177	0xbedaeee9	-0.427604
178	0xbeecc5a5	-0.4624454
179	0xbf286a20	-0.65786934
180	0xbe9f9da1	-0.3117495
181	0xbfa10917	-1.2580899
182	0x3f141d37	0.5785708
183	0xbeb77bb4	-0.35836565
184	0xbed6125d	-0.41810885
185	0x3ef09a3c	0.4699267
186	0xbef39755	-0.47576395
187	0x3fa1aed0	1.2631474
188	0xbee41fe6	-0.44555587
189	0x3f766a7a	0.9625622
190	0x3f439816	0.7640394
191	0x3efc65f8	0.49296546
192	0x3f6eb793	0.9324886
193	0xbf029210	-0.51004124
194	0xbef8ed4d	-0.48618546
195	0xbeff5a96	-0.498738
196	0x3da23efe	0.07922171
197	0x3f0af4be	0.54279697
198	0x3e7f01f3	0.24903087
199	0x3eb6cb96	0.357022
200	0x3f095947	0.5365185
201	0xbec23b9f	-0.37936112
202	0xbe1f88ef	-0.1557958
203	0x3f2927f9	0.6607662
204	0x3e82cc94	0.25546706
205	0x3f4f6804	0.8101809
206	0xbf20e280	-0.6284561
207	0x3e27a8d9	0.16373004
208	0xbf55b971	-0.83486086
209	0xbe0ddbd8	-0.13853395
210	0x3ebde10d	0.37085763
211	0xbda6cfaa	-0.081450775
212	0x3e2923e0	0.16517591
213	0x3eafb41d	0.34317103
214	0xbeb2209f	-0.34790513
215	0x3d171cdb	0.036892753
216	0xbe6177f1	-0.2201841
217	0x3d2111da	0.039323665
218	0x3ec007f1	0.3750606
219	0xbceb4be5	-0.028722713
220	0xbf9f8c93	-1.2464775
221	0x3e13b287	0.14423572
222	0xbf1100f1	-0.5664206
223	0x3f187b8b	0.5956351
224	0x3f3eec32	0.74579155
225	0xbf1dcf3b	-0.61644334
226	0x3f08df4c	0.53465724
227	0x3ec8e7f5	0.3923947
228	0x3eada5a4	0.33915436
229	0x3e62785f	0.2211623
230	0x3e9ffbbb	0.31246743
231	0x3ebf4abc	0.37361705
232	0xbe884c05	-0.26620498
233	0xbf3adefa	-0.72996485
234	0x3f58b273	0.8464729
235	0x3e3c597e	0.18393514
236	0x3f135067	0.5754456
237	0xbe5fa6f9	-0.21841039
238	0x3f0ee0d6	0.5581182
239	0xbfac6010	-1.3466816
240	0xbe85d4aa	-0.26138812
241	0xbf031374	-0.5120156
242	0x3dbbd327	0.091711335
243	0x3dd9f4e9	0.10642416
244	0xbee4768c	-0.44621694
245	0x3f7f2975	0.99672633
246	0x3eb4a0ea	0.35279018
247	0xbeb4a402	-0.35281378
248	0x3e0e1e99	0.1387886
249	0xbef74f42	-0.48302656
250	0x3e077b05	0.13230522
251	0xbf8ce726	-1.1008041
252	0xbf9696ba	-1.1764748
253	0xbf70c17f	-0.9404525
254	0x3ebcbc31	0.3686233
255	0x3ed1b00b	0.40954623

fc.4.bias f4 [10]
0	0xbecb9d24	-0.39768326
1	0xbf2604c2	-0.6485101
2	0x3f4d9823	0.8031027
3	0x3e2a2e79	0.1661929
4	0xbd7995b4	-0.060933784
5	0x3e2feb37	0.17179571
6	0x3f026e69	0.5094972
7	0xbe1753b7	-0.14778028
8	0x3c8103ac	0.015748821
9	0xbf2b721f	-0.6697101
