simple_nn_model_fmnist_small.pth (torch, 440693 bytes, 6 tensors)

fc.0.weight f4 [128, 784]
0	0x3cdfaea1	0.02730495
1	0x3cf1f925	0.029537747
2	0xbc047390	-0.008084193
3	0x3d05ee34	0.03269787
4	0xbbf5aa99	-0.0074971435
5	0x3c247d8d	0.010039699
6	0xbc5d7694	-0.013517041
7	0x3c81274e	0.015765812
8	0x3d783cc4	0.060604826
9	0xbbf098fe	-0.007342457
10	0x3d01356d	0.03154509
11	0x3c355e51	0.01106985
12	0x3d4aa276	0.04947134
13	0x3da75f37	0.08172458
14	0x3d9a1cd2	0.07525028
15	0x3d2789ea	0.04090301
16	0xba8fc66a	-0.0010969166
17	0xbd186d47	-0.03721359
18	0xbce70efe	-0.028205391
19	0x3bb1b4e7	0.0054231766
20	0xbc315cc3	-0.010825339
21	0x3c092fa5	0.008373176
22	0xbc3c0437	-0.011475614
23	0x3ccc6451	0.024950178
24	0xbcefb434	-0.029260732
25	0xbc849ec4	-0.016188987
26	0xbc163787	-0.009168512
27	0xbca1ead0	-0.019765288
28	0x3b5f5e06	0.0034083142
29	0xbd113c51	-0.035457913
30	0x3d039a14	0.032129362
31	0xbcf0d464	-0.02939815
32	0x3d117e03	0.035520565
33	0x3c4960f3	0.012291181
34	0xbc4608c4	-0.012087051
35	0xbd0cdadf	-0.03438842
36	0x3d2c179e	0.04201471
37	0xbd815b65	-0.0631626
38	0xbe026130	-0.12732387
39	0x3d07b8d3	0.033135246
40	0x3de704a6	0.112801835
41	0xbd0d1eb0	-0.034453094
42	0xbcd57080	-0.02605462
43	0x3d61f64f	0.05516654
44	0x3db737b2	0.0894617
45	0xbdf32fd6	-0.11874358
46	0xbdbae6f3	-0.09126081
47	0xbdc31e57	-0.09527271
48	0xbca3ca16	-0.019993823
49	0xbd0c0204	-0.03418161
50	0xbd8eb302	-0.06967737
51	0xbd09815e	-0.03357064
52	0xbd012c09	-0.031536136
53	0x3cd0147f	0.025400398
54	0x3c29b196	0.010357281
55	0x3c805718	0.01566653
56	0x3c37971c	0.011205461
57	0xba7509fc	-0.0009347496
58	0x3cec8485	0.028871784
59	0xbcb3f72d	-0.021968449
60	0x3c19f2e7	0.009396291
61	0x3ba6766e	0.005080036
62	0x3d43281d	0.047645677
63	0x3c74289e	0.014902262
64	0x3d1b6585	0.037938613
65	0xbce8009e	-0.028320607
66	0x3d756ae5	0.059916396
67	0x3cb66ee2	0.02226967
68	0xbcbbb980	-0.022915602
69	0xbd6461a9	-0.0557572
70	0x3ddfded1	0.10931171
71	0x3d45b28f	0.04826599
72	0x3df034cc	0.1172882
73	0xbd87787f	-0.0661478
74	0xbd7f4b3e	-0.062327616
75	0xbdb73e23	-0.089473985
76	0xbd162e76	-0.036665402
77	0x3d23ad34	0.0399601
78	0x3d2b5af3	0.041834783
79	0x3ced964d	0.029002333
80	0xbcfa29a2	-0.03053743
81	0xbd14bf23	-0.036315095
82	0x3c97c13f	0.018524764
83	0xbc677e47	-0.014129228
84	0x3cb09d53	0.021559393
85	0xbc082749	-0.008310148
86	0x3cad9e27	0.021193577
87	0xbd173ae9	-0.036921415
88	0xbc4618dc	-0.012090888
89	0x3d0484de	0.032353275
90	0xbd04e774	-0.032447293
91	0x3e04327c	0.12909883
92	0x3e011144	0.12604243
93	0x3cdca52a	0.026934225
94	0xbd63b1f4	-0.05558963
95	0xbb5d732b	-0.003379057
96	0x3df1b474	0.11801997
97	0x3d0bb86c	0.034111425
98	0x3d9db00a	0.076995924
99	0xbce4aa14	-0.02791313
100	0xbc361fc5	-0.011115973
101	0x3d22b63f	0.039724585
102	0xbd842e55	-0.0645415
103	0xbbd1e885	-0.0064058923
104	0x3da531cf	0.08066141
105	0x3c7654a9	0.015034833
106	0xbd66b952	-0.05632908
107	0xbc12b6ed	-0.008954746
108	0xbd167547	-0.03673294
109	0xbd17fa6f	-0.037104066
110	0x3d0f90a6	0.035050057
111	0x3bd08fc5	0.006364795
112	0x3c5896f6	0.013219586
113	0xbd168c7b	-0.036755066
114	0xbd204fa6	-0.03913846
115	0xbc63a9e7	-0.013895488
116	0xbd364e62	-0.044508345
117	0x392257a4	0.00015482173
118	0xbc6ef067	-0.014583684
119	0x3d93be7b	0.07214066
120	0x3ce033ff	0.027368544
121	0xbd80a96b	-0.06282314
122	0xbd2acfe8	-0.04170218
123	0xbc10fe9c	-0.008849766
124	0x3b3d253e	0.002886131
125	0x3c969805	0.018383035
126	0x3ce5c6a9	0.02804883
127	0xbd490087	-0.04907277
128	0xbb6bb0bf	-0.0035963503
129	0x3c060f2a	0.008182326
130	0xbc99d88c	-0.018780015
131	0xbcbbc6fb	-0.02292203
132	0x3c0c2cf7	0.008555642
133	0x3cec89c9	0.028874295
134	0xbcc480b2	-0.023987148
135	0xbb08443f	-0.002079263
136	0xbce1b041	-0.027549865
137	0xbd388e1f	-0.045057412
138	0x3c2bf586	0.010495549
139	0xbba327e3	-0.00497912
140	0x3c8316db	0.01600211
141	0xbd088090	-0.03332573
142	0x3c39c1ba	0.011337692
143	0xbd2c9d5c	-0.042142257
144	0xbd860f0b	-0.06545838
145	0x3b57d6ee	0.0032934505
146	0x3d8061cc	0.06268653
147	0x3da9d1de	0.08291982
148	0x3d8e7b88	0.069571555
149	0xbd3e887f	-0.04651689
150	0xbc857bb0	-0.01629433
151	0xbd0e5b2e	-0.034754924
152	0xbb39cc24	-0.0028350437
153	0xbc58ba5b	-0.013228024
154	0x3d7fe2d6	0.062472187
155	0xbc809542	-0.015696172
156	0x3bec2be8	0.0072073825
157	0x3bc353c6	0.0059609143
158	0x3cbe16f1	0.023204299
159	0x3c48ab93	0.012247938
160	0x3d9aa9a1	0.075518854
161	0x3cbb1984	0.022839315
162	0x3d768ea8	0.06019464
163	0xbce3e9d5	-0.02782146
164	0x38b54bb5	8.644854e-05
165	0xbc653a90	-0.013991013
166	0xbc90a9ca	-0.017659087
167	0x3d080513	0.033207964
168	0x3c20fb25	0.0098255025
169	0xbcbe551b	-0.02323394
170	0xbd16808e	-0.036743693
171	0x3a9af48b	0.0011822147
172	0x3cc6829f	0.024232207
173	0xbc963bc7	-0.018339051
174	0xbcb75c5b	-0.022382906
175	0x3c76c197	0.015060804
176	0xbc6b643f	-0.014367162
177	0xbcd0da09	-0.025494592
178	0x3cca09f3	0.024662947
179	0xbd3ed882	-0.046593197
180	0x3d1df8b3	0.038567256
181	0x3d403ecd	0.04693489
182	0x3d0c171b	0.034201723
183	0xbc80f4e3	-0.015741771
184	0x3ce5fba3	0.028074091
185	0xbc41977c	-0.011815902
186	0x3cea42ed	0.028596366
187	0xbc2ec77c	-0.010667678
188	0xbd7ad30c	-0.061236426
189	0x3ccf19bc	0.025280826
190	0x3d2e8902	0.04261113
191	0xbd2ff7ec	-0.042961046
192	0x3c917f2b	0.017760834
193	0x3cce2f2a	0.025168974
194	0xbb836549	-0.004009877
195	0xbb9ff4ca	-0.004881476
196	0x3ab25cb0	0.0013607945
197	0xbc4de230	-0.012566134
198	0xbc8c0fda	-0.017097402
199	0xbd007ca2	-0.03136886
200	0xbd5875a7	-0.052846577
201	0xbda010e7	-0.07815724
202	0xbc6ac22f	-0.014328524
203	0x3d5e630c	0.054293677
204	0x3a238243	0.0006237367
205	0xbd99593f	-0.074877255
206	0xbd322d7c	-0.04350041
207	0x3b045e72	0.0020197895
208	0xbd241362	-0.040057547
209	0xbcc37441	-0.023859145
210	0x3c713da9	0.014724174
211	0xbaab67e7	-0.001307723
212	0xbd13225b	-0.035921436
213	0xbdc6b91b	-0.09703275
214	0x3bbceb33	0.0057653426
215	0x3d861c83	0.06548407
216	0x3ce05c97	0.0273879
217	0x3cda6d40	0.026663423
218	0x3d0ea54f	0.03482562
219	0xbd87c9b9	-0.066302724
220	0xbcd6a7cc	-0.026203059
221	0x3ce100fe	0.027466293
222	0xbca4140c	-0.02002909
223	0xbc0d868d	-0.008638036
224	0xbd0f3f2a	-0.034972347
225	0x3c37583a	0.011190468
226	0xba7b7b4d	-0.00095932634
227	0xbd4fa297	-0.050692167
228	0xbdd8c9f8	-0.105853975
229	0xbdd53d6b	-0.10412105
230	0xbc99f1c5	-0.018792043
231	0x3d8a81a1	0.06763006
232	0x3d83d98f	0.064379804
233	0x3b921ca1	0.0044589792
234	0x3bbd345f	0.0057740654
235	0xbd0a512b	-0.033768814
236	0xbd52fc21	-0.05150998
237	0xbcce194f	-0.025158552
238	0xbc8c386b	-0.017116746
239	0xbd437ab5	-0.047724444
240	0x3d4bbc18	0.049739927
241	0xbbc1f598	-0.0059191696
242	0xbcc0355a	-0.02346294
243	0x3c922580	0.017840147
244	0x3d54aa1e	0.05192005
245	0xbc8554c2	-0.016275767
246	0xbc30a923	-0.010782513
247	0xbddd106f	-0.1079415
248	0xbd5730e2	-0.052536853
249	0xbc91548b	-0.017740509
250	0xbcc60834	-0.024173833
251	0xbd06bb7f	-0.032893654
252	0xbbe4722c	-0.006971618
253	0xbd0777a2	-0.033073075
254	0xbd04eb27	-0.03245082
255	0xbdc8dd5b	-0.09807845

fc.0.bias f4 [128]
0	0xbd81cb5f	-0.06337618
1	0x3d63405b	0.055481296
2	0xbd34f40f	-0.044178065
3	0x3d5951f5	0.053056676
4	0x3c07ffbd	0.008300719
5	0x3dc0fc75	0.09423152
6	0x3e9a081a	0.30084306
7	0xbc3fe2ed	-0.011711818
8	0x3e2399ab	0.15976588
9	0x3c9efd63	0.019407934
10	0xbc913937	-0.017727477
11	0x3d8d0a74	0.068867594
12	0x3ddc8e9a	0.107693866
13	0xbd0c8860	-0.034309745
14	0x3de04342	0.109503284
15	0xbb7663d2	-0.0037596119
16	0x3dd37f07	0.10326963
17	0xbd6bfc2c	-0.057613537
18	0x3d9076b5	0.070538916
19	0x3dab10e4	0.08352831
20	0x3e03af51	0.12859847
21	0xbd186c45	-0.03721263
22	0xbdf4f3e0	-0.11960578
23	0x3bd6b2cf	0.0065520774
24	0xbcdd07d5	-0.026981274
25	0x3d6bda87	0.05758145
26	0x3d64166e	0.055685453
27	0x3d753e49	0.059873853
28	0xbdc258fe	-0.0948963
29	0xbd853f8e	-0.06506263
30	0xbc993c47	-0.0187055
31	0x3e5fa083	0.21838574
32	0xbdd658d6	-0.10466163
33	0xbd0d1b12	-0.034449644
34	0xbc5aa64b	-0.013345311
35	0xbd5aaeea	-0.053389467
36	0x3aee81f9	0.0018196694
37	0x3e0614ec	0.13093919
38	0x3d04cad4	0.032419994
39	0xbd37beb1	-0.044859592
40	0x3d90a0aa	0.07061894
41	0x3d23dd3c	0.040005907
42	0xbd322b1f	-0.043498155
43	0xbe476c1c	-0.19474834
44	0xbdc92bea	-0.09822829
45	0x3e1b0451	0.15138365
46	0x3e079fda	0.13244572
47	0x3e0413bf	0.12898158
48	0x3d56ee7e	0.052473538
49	0xbdac1425	-0.0840228
50	0xbc8b7869	-0.01702519
51	0x3dd529a2	0.104083315
52	0xbdb49b32	-0.08818664
53	0xbcceae8f	-0.02522972
54	0x3d5752e4	0.052569285
55	0x3c2d4cb7	0.010577372
56	0xbd34b587	-0.04411843
57	0x3dcc1c09	0.09966285
58	0x3d2f454f	0.042790707
59	0xbc93301a	-0.017967273
60	0x3e5012fa	0.20319739
61	0x3e79863a	0.2436761
62	0x3cef9e8a	0.029250402
63	0x3e466c28	0.19377196
64	0xbc915d29	-0.017744618
65	0x3e3562a9	0.17713417
66	0x3d18008a	0.03710989
67	0x3d65200e	0.055938773
68	0xbc818d2b	-0.015814384
69	0x3d33e064	0.043915167
70	0x3e1964c8	0.14979851
71	0xbd6701ab	-0.056398075
72	0x3db1a09b	0.08673211
73	0xbd11f793	-0.035636496
74	0x3c687eb2	0.014190363
75	0x3dccbdf0	0.09997165
76	0x3d811331	0.063024886
77	0x3b8bef9e	0.004270508
78	0x3def5d24	0.11687687
79	0x3da781fd	0.0817909
80	0x3c0097d3	0.007848698
81	0x3da17a48	0.078846514
82	0x3dc19921	0.09453035
83	0xbd5f3cfc	-0.05450152
84	0xbde870d1	-0.11349643
85	0x3c95907a	0.018257368
86	0xbd6de76b	-0.058082025
87	0xbdf147b7	-0.11781257
88	0xbd90d381	-0.07071591
89	0x3c9232f0	0.017846555
90	0xbda2624f	-0.07928907
91	0xbc17e8b9	-0.009271794
92	0x3e0e18b6	0.13876614
93	0x3d832892	0.064042225
94	0x3dafe596	0.08588712
95	0xbca6b57d	-0.020350212
96	0xbdf55af7	-0.11980241
97	0xbc79d5fc	-0.015248772
98	0xbd692043	-0.056915533
99	0xbd4aeaf7	-0.049540486
100	0xbd0f13b4	-0.0349309
101	0x3e541104	0.20709616
102	0x3d917f6a	0.071043804
103	0x3c62e788	0.013849147
104	0xbcb99c37	-0.022657497
105	0x3b25db9a	0.0025307895
106	0xbcf99035	-0.030464271
107	0x3dabdbd0	0.08391535
108	0x3e0f0e5e	0.13970324
109	0x3da7c21a	0.08191319
110	0x3e035e0f	0.1282885
111	0x3bdaaa9f	0.0066731717
112	0x3e246f34	0.16058046
113	0x3aa156c9	0.0012309189
114	0x3b93566a	0.0044963853
115	0x3de80090	0.11328232
116	0x3e03b0a7	0.12860356
117	0xbcecc2c1	-0.02890146
118	0x3e332877	0.17495905
119	0x3d5f1fa1	0.054473523
120	0xb95d0369	-0.00021077473
121	0xbd98b3e8	-0.074561894
122	0x3dc54931	0.09633101
123	0x3c471faa	0.012153545
124	0xbd4df4e5	-0.050282378
125	0xbe4e6121	-0.20154239
126	0xbd19c520	-0.03754151
127	0x3d6dd0a4	0.058060303

fc.2.weight f4 [64, 128]
0	0xbd277033	-0.040878486
1	0xbcba577f	-0.0227468
2	0x3d974785	0.07386688
3	0x3e4fc474	0.20289785
4	0x3e108547	0.14113341
5	0xbb506eed	-0.0031804398
6	0xbcf2462e	-0.02957448
7	0x3dd2585b	0.10270759
8	0x3e0a61a3	0.13513808
9	0x3cbc5f6b	0.022994718
10	0xbd82cffd	-0.06387327
11	0x3dc09b2d	0.094045974
12	0x3d73226a	0.05935899
13	0xbcf930e8	-0.030418828
14	0x3d59ff73	0.05322213
15	0x3d91ec00	0.071250916
16	0x3d89973c	0.06718299
17	0xbdf19aa1	-0.11797071
18	0xbdd31b0f	-0.103078954
19	0x3e18f2ac	0.14936322
20	0xbe104420	-0.14088488
21	0xbd936030	-0.07196081
22	0x3e56dc14	0.2098239
23	0x3dfaea4a	0.12251718
24	0xbd9fa1f2	-0.077945605
25	0xbd574dde	-0.052564494
26	0x3df6d026	0.1205142
27	0x3e04f224	0.12982994
28	0x3d2008e4	0.03907098
29	0x3d1b7582	0.03795386
30	0xbd963c1d	-0.073356844
31	0x3e66c7eb	0.225372
32	0x3c96ef75	0.018424729
33	0xbc4a7b97	-0.012358568
34	0x3cc8266d	0.024432385
35	0xbe255677	-0.16146265
36	0x3d790856	0.060798965
37	0x3d169a87	0.036768463
38	0xbd44d400	-0.04805374
39	0x3c6f43fd	0.014603612
40	0x3deb6004	0.11492923
41	0x3c9236b0	0.017848343
42	0x3d0b71bb	0.03404401
43	0xbd60aa03	-0.054849636
44	0x3e24c7ea	0.16091886
45	0xbdee1c2e	-0.116264686
46	0xbe2e1e3d	-0.17003722
47	0x3d5e824b	0.054323476
48	0x3e224b19	0.1584896
49	0x3d44b31d	0.04802238
50	0xbe0f3390	-0.13984513
51	0x3dc74587	0.09730058
52	0xbdc2d763	-0.09513738
53	0x3d57a5ef	0.05264848
54	0x3e892485	0.26785675
55	0xbcf0203b	-0.029312244
56	0x3c8717d4	0.016490854
57	0x3e8f0b97	0.2793853
58	0xbd010a10	-0.031503737
59	0x3d61848a	0.05505804
60	0x3d8d6112	0.0690328
61	0x3d6622a4	0.05618538
62	0x3d820ee8	0.063504994
63	0x3c94d4c2	0.018167857
64	0x3cd95743	0.026530867
65	0xbdb08e7a	-0.08620925
66	0xbd6c9b74	-0.05776544
67	0x3d0d3ee8	0.03448382
68	0xbe1a0f05	-0.15044792
69	0x39e5745f	0.00043764987
70	0xbe3bf884	-0.1835652
71	0x3c73c011	0.014877335
72	0x3dfc7fcc	0.12329063
73	0xbc8cd248	-0.017190114
74	0x3d9ec0f9	0.0775165
75	0xbd9c0bb1	-0.076194175
76	0xbb8197a8	-0.0039548464
77	0x3d878fc5	0.06619219
78	0x3d2d56c9	0.042319093
79	0x3c8002b7	0.015626295
80	0x3b9593a5	0.0045647197
81	0x3e8aa68d	0.27080193
82	0xbe128dff	-0.1431198
83	0x3d07f16e	0.03318923
84	0xbb7957d9	-0.0038046746
85	0x3dba29cf	0.090900056
86	0xbc84b6af	-0.016200392
87	0x3df23e06	0.11828236
88	0x3d7d2101	0.061799053
89	0x3d8f9455	0.07010714
90	0x3d20768d	0.03917556
91	0xbcf43847	-0.029811991
92	0x3da28274	0.07935038
93	0x3d17f4ed	0.037098814
94	0x3e10b268	0.14130557
95	0x3da95905	0.08268932
96	0x3da22efe	0.07919119
97	0x3e3022da	0.17200795
98	0xbdce36d4	-0.100690514
99	0xbc244ffc	-0.010028835
100	0x3e1392a5	0.14411409
101	0x3dcfb81f	0.1014254
102	0xbd850494	-0.06495014
103	0xbc978a21	-0.018498482
104	0xbdee0ff1	-0.11624134
105	0x3b3e3861	0.0029025304
106	0xbd180eff	-0.037123676
107	0x3d378beb	0.04481117
108	0xbe12fc4d	-0.14354058
109	0x3dd041d5	0.101688065
110	0xbd4c30f4	-0.049851373
111	0xbd88452a	-0.06653817
112	0x3da25858	0.079270065
113	0x3de3d2d3	0.11124196
114	0xbcaf1522	-0.021372382
115	0x3d98cec4	0.074613124
116	0xbcea9aa4	-0.028638192
117	0x3e4baa30	0.1988914
118	0xbdf3630e	-0.118841276
119	0x3d004bf2	0.031322427
120	0x3ddd484e	0.10804807
121	0xbe4b54cc	-0.19856566
122	0xbe113dde	-0.14183757
123	0x3e5b2ed9	0.2140459
124	0x3afa36e6	0.0019089847
125	0x3b68b9d9	0.0035511164
126	0x3df5c19d	0.119998194
127	0xbdb6e71b	-0.089307986
128	0x3ea9f160	0.33191967
129	0x3d1f726c	0.03892748
130	0xbdced2d3	-0.10098805
131	0xbde0ff17	-0.109861545
132	0xbe334b0c	-0.17509097
133	0x3d33d6a9	0.043905888
134	0x3db37535	0.0876259
135	0xbe32f1f9	-0.17475118
136	0xbdd3dc10	-0.10344708
137	0x3e1e5632	0.15462568
138	0xbdc8e062	-0.098084226
139	0xbe4b88c7	-0.19876395
140	0xbca7a05f	-0.020462213
141	0xb829cbc7	-4.0482522e-05
142	0x3e96d19a	0.29456788
143	0x3d579afc	0.05263804
144	0xbd9b8428	-0.07593566
145	0x3e81fef8	0.25389838
146	0x3e705945	0.23471554
147	0xbd92b0a5	-0.071625985
148	0xbd9729ec	-0.07381043
149	0xbd982905	-0.07429699
150	0xbed65975	-0.41865125
151	0xbd96dede	-0.07366727
152	0xbcafd20f	-0.021462468
153	0x3e85fa93	0.26167735
154	0xbc21658a	-0.009850869
155	0x3e6442dd	0.22291131
156	0x3e5f17ba	0.21786395
157	0x3d983433	0.07431831
158	0x3dc551bd	0.09634731
159	0x3df2f6de	0.118634924
160	0x3e237e4b	0.15966146
161	0xbc848bde	-0.016179975
162	0x3de88e46	0.113552615
163	0xbe063f82	-0.13110164
164	0x3d977ccf	0.07396852
165	0xbe13aa9d	-0.14420553
166	0x3d957ea4	0.072995454
167	0x3dc80df2	0.09768285
168	0xbc3e533e	-0.011616526
169	0xbd931cf3	-0.07183256
170	0x3e83ffab	0.25780997
171	0xbe166bee	-0.1468961
172	0xbe75d46e	-0.24006817
173	0xbe343985	-0.17600067
174	0x3e6e261b	0.23256724
175	0x3e2f5e45	0.17125805
176	0xbe41767d	-0.18892856
177	0x3e91a717	0.28447792
178	0x3c41e625	0.011834656
179	0xbded56b1	-0.11588801
180	0xbdb2028a	-0.086918905
181	0xbe36c092	-0.17846897
182	0xbe410af3	-0.18851833
183	0x3c3898fa	0.011266941
184	0x3e5e99cb	0.21738355
185	0xbe9ccde4	-0.30625832
186	0x3d48b89d	0.049004186
187	0xbd80ca87	-0.06288629
188	0x3e57f093	0.21087866
189	0xbeac978b	-0.33709368
190	0x3e85908b	0.2608684
191	0xbb39b991	-0.0028339366
192	0xbdee762d	-0.11643634
193	0x3d362ed3	0.04447825
194	0xbccef5d5	-0.025263706
195	0xbdd69ae7	-0.10478764
196	0x3e28c1bb	0.16480152
197	0x3c929845	0.017894873
198	0x3d892147	0.066958
199	0x3dafc617	0.085827045
200	0x3d930c54	0.07180086
201	0x3d2eb42d	0.042652298
202	0xbdd54c0e	-0.10414897
203	0x3e3aa91d	0.18228574
204	0xbdeeb870	-0.116562724
205	0x3d15c9b3	0.03656931
206	0x3dc8d1ec	0.098056644
207	0x3ad6fa5c	0.0016401517
208	0x3d3766a5	0.044775624
209	0xbdbc5e80	-0.09197712
210	0x3e538df7	0.20659624
211	0xbccf63ad	-0.025316084
212	0x3b2462fd	0.0025083416
213	0x3e674cd4	0.22587901
214	0x3e0a224b	0.13489644
215	0x3e4762e7	0.19471322
216	0xbd5483d0	-0.05188352
217	0x3d6dc3e5	0.058048148
218	0x3df72242	0.12067081
219	0x3d3926e8	0.04520312
220	0x3e3ee987	0.18643771
221	0x3e4f0a9d	0.20218892
222	0xbe270ce8	-0.16313517
223	0xbe3b884b	-0.1831371
224	0xbd2c3a87	-0.042048004
225	0xbe91dfe3	-0.28491125
226	0x3e124b9b	0.14286654
227	0xbe206243	-0.15662484
228	0xbea96de0	-0.3309164
229	0xbe4fef6f	-0.2030618
230	0xbdf5af58	-0.11996335
231	0x3d851e60	0.06499934
232	0x3e2236f6	0.15841278
233	0xbeb4fa0f	-0.3534703
234	0x3ca95432	0.02067003
235	0x3ab399ad	0.0013702415
236	0x3e09f88b	0.13473718
237	0x3e90a491	0.28250554
238	0x3e56cf07	0.20977412
239	0x3d22ba12	0.03972823
240	0xbe3b2e3d	-0.18279357
241	0x3e3866dc	0.18007988
242	0x3d8437d7	0.06455963
243	0xbd77383b	-0.06035636
244	0x3e801937	0.25019237
245	0xbc7f085d	-0.015565959
246	0xbd240dae	-0.04005211
247	0x3e87d985	0.26533142
248	0xbe0d6353	-0.1380742
249	0xbdd9c872	-0.10633935
250	0x3ebc33cd	0.3675827
251	0x3e8fc55c	0.2808026
252	0xbe6fb5b6	-0.23409161
253	0xbd9b1e92	-0.0757419
254	0x3daf507b	0.08560272
255	0x3e61baf9	0.2204398

fc.2.bias f4 [64]
0	0x3d8cb7c8	0.06870991
1	0x3dcb873d	0.09937904
2	0x3bce57b4	0.006297076
3	0x3c72c054	0.014816362
4	0xbd703277	-0.058641877
5	0x3dd13fb1	0.10217226
6	0xbcacbcaf	-0.021086065
7	0xbe3b450a	-0.18288055
8	0x3e12c342	0.14332297
9	0x3e146b02	0.14493945
10	0x3ea2c933	0.31794128
11	0x3e327dfc	0.17430872
12	0xbd7aec83	-0.06126071
13	0x3e176bfb	0.14787285
14	0xbda6a26c	-0.08136448
15	0xbd3d4d66	-0.04621639
16	0x3dad384d	0.08458004
17	0xbcb2ffdb	-0.021850517
18	0xbd74c735	-0.05976029
19	0xbd95c0e0	-0.073121786
20	0x3dc25cce	0.09490357
21	0x3d6858f2	0.05672545
22	0x3cca5e8e	0.02470329
23	0x3df4119c	0.11917421
24	0xbc892649	-0.016741889
25	0xbd1cdd19	-0.038296793
26	0x3c6cd473	0.014454949
27	0xbd117882	-0.035515316
28	0x3d9fbd42	0.0779977
29	0x3d9fea3e	0.0780835
30	0x3d2d0dfe	0.042249672
31	0xbd3a401f	-0.045471307
32	0x3cb2f2b9	0.021844255
33	0x3d1f002a	0.038818516
34	0xbd818b89	-0.06325442
35	0x3d89af20	0.067228556
36	0x3e8d56d3	0.27605304
37	0x3b808f4d	0.003923333
38	0xbca74fc5	-0.02042378
39	0xbcedc462	-0.029024307
40	0x3edcf661	0.43156722
41	0xbd1ebbb5	-0.03875323
42	0x3dd61512	0.104532376
43	0x3deb1ab0	0.114796996
44	0xbe1e0121	-0.15430118
45	0x3e0ab135	0.13544162
46	0xbd13fa56	-0.03612741
47	0xbbf746ed	-0.007546297
48	0xbc8ba1a2	-0.017044846
49	0xbda86150	-0.08221686
50	0x3c75289f	0.014963298
51	0xbdc1ffb6	-0.09472601
52	0xbdf02978	-0.117266595
53	0x3e415bfc	0.18882746
54	0x3a8f0688	0.0010911981
55	0x3dacc0bc	0.08435199
56	0xbca909e7	-0.020634605
57	0x3e4efe16	0.20214114
58	0xbd05e74e	-0.032691292
59	0x3e43cb39	0.19120492
60	0x3ea5e46e	0.3240084
61	0xbe389719	-0.18026389
62	0x3e0d8e84	0.13823897
63	0x3c42e37b	0.011895056

fc.4.weight f4 [10, 64]
0	0x3f18f5f5	0.597503
1	0x3ea21c5d	0.31662264
2	0xbe7a0b2e	-0.24418327
3	0x3cc07699	0.023494052
4	0x3d65d271	0.056108896
5	0x3e683ede	0.22680232
6	0xbf01d408	-0.5071416
7	0xbf4d67a8	-0.8023629
8	0x3f081cc7	0.5316891
9	0x3dba908b	0.09109601
10	0x3f2adcf3	0.6674339
11	0x3e04897f	0.12943076
12	0xbf08f8c9	-0.53504616
13	0xbebaad84	-0.36460507
14	0x3d4b2341	0.049594168
15	0xbef0c50e	-0.4702534
16	0xbed1d823	-0.40985212
17	0x3f696f38	0.9118533
18	0xbf2912a2	-0.66044056
19	0xbcd1e43a	-0.025621522
20	0x3e8c1ff3	0.27368125
21	0xbea23d4b	-0.31687388
22	0x3e9a542a	0.30142337
23	0xbedbeeea	-0.42955714
24	0xbe22ee1e	-0.15911147
25	0xbdc10786	-0.09425263
26	0x3d4d01eb	0.050050657
27	0xbefabefb	-0.48973832
28	0x3ee70af7	0.45125553
29	0xbe66f256	-0.22553381
30	0x3e0bac69	0.13639988
31	0x3db7f57a	0.08982368
32	0xbda73bbd	-0.08165691
33	0xbde517be	-0.11186169
34	0xbda0b966	-0.07847862
35	0xbf3cda13	-0.73770255
36	0xbec10bfd	-0.3770446
37	0x3f22a296	0.63529336
38	0xbeb9be80	-0.36278152
39	0x3dd1b429	0.10239441
40	0xbf2de97a	-0.6793438
41	0x3db4ec40	0.088341236
42	0x3f484f10	0.7824564
43	0xbe20635a	-0.156629
44	0xbe8dee09	-0.2772067
45	0x3e7fab0f	0.24967597
46	0xbe17b098	-0.14813459
47	0x3f58963d	0.84604245
48	0x3dfe94d7	0.12430733
49	0xbf21d160	-0.63210106
50	0xbdbb4afb	-0.09145161
51	0x3df518ec	0.11967644
52	0xbf03cedb	-0.5148751
53	0x3efb1a59	0.4904354
54	0xbde2804c	-0.11059627
55	0x3e4c2ae1	0.19938232
56	0xbdc0b5ac	-0.09409651
57	0x3e405321	0.18781711
58	0xbe435843	-0.19076638
59	0x3e138a7d	0.14408298
60	0xbe97d926	-0.2965786
61	0xbf06b2c9	-0.52616554
62	0xbec2359c	-0.37931526
63	0x3d1afcbc	0.037838683
64	0x3d958feb	0.07302841
65	0xbec3ee59	-0.38267782
66	0xbd088f4f	-0.033339795
67	0xbe91b3ac	-0.2845739
68	0xbcb73607	-0.02236463
69	0xbd269590	-0.040669978
70	0x3ebc4bad	0.36776486
71	0xbd7ad1da	-0.061235286
72	0xbed3804f	-0.4130883
73	0xbcb9c3aa	-0.022676308
74	0xbecee77c	-0.40410984
75	0x3def8204	0.116947204
76	0x3e211afb	0.15732948
77	0x3ee231e3	0.44178686
78	0x3d7f01f7	0.062257733
79	0x3da3505c	0.07974312
80	0xbe8f494c	-0.2798561
81	0xbe67a0b1	-0.22619893
82	0x3ed6367e	0.4183845
83	0xbc56d009	-0.013111123
84	0x3cab76a5	0.020930598
85	0x3e9af974	0.30268443
86	0x3f284996	0.65737283
87	0xbda82c5e	-0.08211587
88	0xbeb22627	-0.34794733
89	0x3cd250bc	0.025673263
90	0xbde9499a	-0.113909915
91	0xbeba6389	-0.36404064
92	0xbeacc00c	-0.3374027
93	0xbef58238	-0.47950912
94	0x3eb08d75	0.34482923
95	0xbda6efe8	-0.08151227
96	0x3ea585f5	0.32328764
97	0x3f35b8ff	0.70985407
98	0xbed4dc4b	-0.4157432
99	0xbecf9b0d	-0.40547982
100	0xbe39b8d1	-0.18136908
101	0x3f225287	0.63407177
102	0x3e87a380	0.26491928
103	0xbcb6c6eb	-0.022311648
104	0xbeddf7c8	-0.43353105
105	0xbd797a28	-0.060907513
106	0x3f1284df	0.57233995
107	0xbd9ed823	-0.077560686
108	0x3eed20cb	0.46314082
109	0xbe53aae1	-0.20670654
110	0xbe17f421	-0.14839222
111	0x3eb289f2	0.3487087
112	0xbc52b96e	-0.012861593
113	0xbedadab1	-0.42744973
114	0xbc9ff023	-0.019523686
115	0x3da7d27d	0.08194444
116	0x3dbce0cb	0.09222563
117	0xbe8ceb7a	-0.27523404
118	0xbbf1b420	-0.007376209
119	0xbd218681	-0.039434914
120	0x3dc3af7c	0.09554955
121	0xbe0692e2	-0.13141969
122	0xbdf92bb4	-0.12166539
123	0xbe6317c3	-0.22177033
124	0xbc3a3ad1	-0.011366562
125	0x3f0f846e	0.56061447
126	0x3eb032e0	0.34413815
127	0xbf1ed374	-0.620414
128	0xbe413259	-0.18866862
129	0x3f3f9d81	0.74849707
130	0xbd5f03ce	-0.054446988
131	0x3e76d158	0.24103296
132	0xbd89605d	-0.06707833
133	0xbec68b87	-0.38778326
134	0x3cad8360	0.021180809
135	0x3ed1ece7	0.41001055
136	0x3e9d3c93	0.30710277
137	0x3f0d73fa	0.5525509
138	0x3dba7194	0.091036946
139	0x3ee682cc	0.45021665
140	0xbe1cfe7c	-0.15331453
141	0xbef046df	-0.4692907
142	0xbd674546	-0.05646255
143	0xbe230df8	-0.15923297
144	0xbe3c56db	-0.18392508
145	0xbf1439c4	-0.57900643
146	0xbf0ba86f	-0.54553884
147	0xbddca907	-0.10774427
148	0xbe3e8d06	-0.18608484
149	0x3f111339	0.56669956
150	0xbebafb28	-0.36519742
151	0xbd070f50	-0.032973588
152	0x3f21d454	0.6321461
153	0x3d6c7d47	0.05773666
154	0x3de9243f	0.113838665
155	0x3ec3725f	0.38173196
156	0x3d2905bf	0.041265246
157	0x3d83774d	0.06419239
158	0xbee1e47a	-0.44119626
159	0xbe5ddd00	-0.21666336
160	0x3dc8d3b4	0.09806004
161	0xbbd3feef	-0.0064695994
162	0x3d8e0f44	0.069365054
163	0xbe8b364e	-0.2718987
164	0xbe6320b2	-0.22180441
165	0xbda3aef2	-0.079923525
166	0x3ebaf40e	0.36514324
167	0xbe1b8d97	-0.15190731
168	0x3ed7bdf3	0.42137107
169	0xbde8e755	-0.11372248
170	0x3f06e318	0.5269027
171	0xbd4e2c0f	-0.050334986
172	0xbeff5fd2	-0.49877793
173	0xbe6116af	-0.2198131
174	0x3d588bad	0.05286758
175	0x3f10cf33	0.5656616
176	0xbf3ed353	-0.74541205
177	0xbe8396dd	-0.25701037
178	0xbef9e907	-0.48810598
179	0xbe1d06b9	-0.15334596
180	0xbed59592	-0.41715676
181	0xbebd46cc	-0.36968076
182	0x3d99ce31	0.07510031
183	0xbdf78b75	-0.12087146
184	0xbdf60f98	-0.12014693
185	0x3efff8e3	0.49994573
186	0xbe535488	-0.20637715
187	0x3f0b8eb8	0.54514647
188	0xbec2a6eb	-0.38017973
189	0x3f79216e	0.97316635
190	0x3ee7f9f3	0.45307884
191	0x3c207017	0.009792349
192	0x3f2b7632	0.66977227
193	0xbea9b7d7	-0.3314807
194	0xbe7aa365	-0.24476393
195	0xbe6a03dd	-0.22853036
196	0x3d481439	0.04884741
197	0x3e44e9bd	0.19229789
198	0x3ea98690	0.33110476
199	0xbd1bdfc5	-0.0380552
200	0x3f3655a6	0.7122444
201	0xbe8d5322	-0.27602488
202	0x3c51fe88	0.012817033
203	0x3edfd890	0.43719912
204	0x3f15bb61	0.5848904
205	0x3f637ce0	0.8886242
206	0xbe79c3cd	-0.24391098
207	0x3e141feb	0.144653
208	0x3e36c8b1	0.17849995
209	0xbe4077fd	-0.18795772
210	0x3e601722	0.21883824
211	0x3d92949b	0.071572505
212	0xbe308569	-0.17238392
213	0x3f1bfdf2	0.60934365
214	0xbed432cb	-0.41445002
215	0x3e592b28	0.21207869
216	0xbea4f0fc	-0.32215106
217	0xbd5320f8	-0.051545113
218	0x3ca384d6	0.019960802
219	0xbe9bbb8a	-0.30416518
220	0xbe60839d	-0.21925206
221	0x3f08d205	0.53445464
222	0xbec0aa35	-0.37629858
223	0x3ea0c301	0.31398776
224	0x3eaba096	0.33520955
225	0xbea337dc	-0.31878555
226	0x3f2327d4	0.6373265
227	0x3f286e2f	0.65793127
228	0x3ea77e0c	0.32713354
229	0x3d96a79b	0.07356187
230	0x3ee9b955	0.4564921
231	0x3d4e7cbe	0.050411932
232	0xbe8f8cc6	-0.2803709
233	0xbe9fa9a8	-0.31184125
234	0x3e221b71	0.1583078
235	0xbd97fdca	-0.07421453
236	0xbdaa5522	-0.08317019
237	0xbedb3f9a	-0.42821962
238	0x3e938e70	0.2881961
239	0xbf5b1409	-0.85577446
240	0xbf08ea51	-0.5348254
241	0xbec89554	-0.39176428
242	0xbdeadd23	-0.1146796
243	0xbd801045	-0.06253103
244	0xbecb3cce	-0.39694828
245	0x3e359b77	0.17735086
246	0x3d65da0c	0.05611615
247	0xbd5dcce3	-0.054150473
248	0x3d931c65	0.0718315
249	0xbe8434b7	-0.25821468
250	0x3d9627e1	0.07331825
251	0xbf048935	-0.5177186
252	0xbe358027	-0.17724667
253	0xbf04d450	-0.51886463
254	0x3ef93de0	0.4868002
255	0x3ea21602	0.31657416

fc.4.bias f4 [10]
0	0x3d235b4b	0.039881986
1	0xbdf46d83	-0.1193495
2	0xbe1f0b81	-0.15531732
3	0xbd1305f4	-0.03589435
4	0xbe853fb8	-0.26025176
5	0x3f370f3e	0.7150763
6	0x3dd56cd2	0.104211465
7	0x3d52bc5b	0.05144916
8	0xbe7a6af6	-0.24454865
9	0xbeb51af2	-0.3537212
